…
Average actions of items: 3.749589640707642
The number of inters: 20559
The sparsity of the dataset: 99.98071694707788%
Tue 02 Apr 2024 14:51:42 INFO 
====Testing====
baby
The number of users: 19445
Average actions of users: 1.1150424273592183
The number of items: 5549
Average actions of items: 3.907370697422959
The number of inters: 21682
The sparsity of the dataset: 99.97990552482683%
Tue 02 Apr 2024 14:51:49 INFO 

=================================


Tue 02 Apr 2024 14:51:49 INFO =========1/6: Parameters:['cl_loss', 'cl_loss2', 'seed']=(0.001, 0.001, 999)=======
Tue 02 Apr 2024 14:52:09 INFO SOIL(
  (user_embedding): Embedding(19445, 64)
  (item_id_embedding): Embedding(7050, 64)
  (image_embedding): Embedding(7050, 4096)
  (text_embedding): Embedding(7050, 384)
  (image_trs): Linear(in_features=4096, out_features=64, bias=True)
  (text_trs): Linear(in_features=384, out_features=64, bias=True)
  (softmax): Softmax(dim=-1)
  (query_common): Sequential(
    (0): Linear(in_features=64, out_features=64, bias=True)
    (1): Tanh()
    (2): Linear(in_features=64, out_features=1, bias=False)
  )
  (gate_v): Sequential(
    (0): Linear(in_features=64, out_features=64, bias=True)
    (1): Sigmoid()
  )
  (gate_t): Sequential(
    (0): Linear(in_features=64, out_features=64, bias=True)
    (1): Sigmoid()
  )
)
Trainable parameters: 33579072
Tue 02 Apr 2024 14:52:12 INFO epoch 0 training [time: 2.65s, train loss: 41.2273]
Tue 02 Apr 2024 14:52:19 INFO epoch 0 evaluating [time: 3.43s, valid_score: 0.069400]
Tue 02 Apr 2024 14:52:19 INFO valid result: 
recall@5: 0.0319    recall@10: 0.0489    recall@20: 0.0694    recall@50: 0.1141    ndcg@5: 0.0215    ndcg@10: 0.0270    ndcg@20: 0.0322    ndcg@50: 0.0412    precision@5: 0.0067    precision@10: 0.0051    precision@20: 0.0036    precision@50: 0.0024    map@5: 0.0178    map@10: 0.0201    map@20: 0.0215    map@50: 0.0229    
…
