…
Average actions of items: 2.840578623894469
The number of inters: 37899
The sparsity of the dataset: 99.99202039826986%
Tue 02 Apr 2024 15:17:39 INFO 
====Testing====
sports
The number of users: 35598
Average actions of users: 1.1244732850160122
The number of items: 13738
Average actions of items: 2.9137429028970736
The number of inters: 40029
The sparsity of the dataset: 99.99181486908563%
Tue 02 Apr 2024 15:17:50 INFO 

=================================


Tue 02 Apr 2024 15:17:50 INFO =========1/6: Parameters:['cl_loss', 'cl_loss2', 'seed']=(0.001, 0.001, 999)=======
Tue 02 Apr 2024 15:18:50 INFO SOIL(
  (user_embedding): Embedding(35598, 64)
  (item_id_embedding): Embedding(18357, 64)
  (image_embedding): Embedding(18357, 4096)
  (text_embedding): Embedding(18357, 384)
  (image_trs): Linear(in_features=4096, out_features=64, bias=True)
  (text_trs): Linear(in_features=384, out_features=64, bias=True)
  (softmax): Softmax(dim=-1)
  (query_common): Sequential(
    (0): Linear(in_features=64, out_features=64, bias=True)
    (1): Tanh()
    (2): Linear(in_features=64, out_features=1, bias=False)
  )
  (gate_v): Sequential(
    (0): Linear(in_features=64, out_features=64, bias=True)
    (1): Sigmoid()
  )
  (gate_t): Sequential(
    (0): Linear(in_features=64, out_features=64, bias=True)
    (1): Sigmoid()
  )
)
Trainable parameters: 85991872
Tue 02 Apr 2024 15:18:57 INFO epoch 0 training [time: 6.74s, train loss: 74.7963]
Tue 02 Apr 2024 15:19:13 INFO epoch 0 evaluating [time: 8.03s, valid_score: 0.070500]
Tue 02 Apr 2024 15:19:13 INFO valid result: 
recall@5: 0.0298    recall@10: 0.0455    recall@20: 0.0705    recall@50: 0.1194    ndcg@5: 0.0198    ndcg@10: 0.0249    ndcg@20: 0.0313    ndcg@50: 0.0411    precision@5: 0.0063    precision@10: 0.0048    precision@20: 0.0037    precision@50: 0.0025    map@5: 0.0163    map@10: 0.0183    map@20: 0.0201    map@50: 0.0216    
…
