…
Average actions of items: 2.4039037241048975
The number of inters: 40150
The sparsity of the dataset: 99.99389670773579%
Tue 02 Apr 2024 16:47:41 INFO 
====Testing====
clothing
The number of users: 39387
Average actions of users: 1.0457511361616778
The number of items: 16803
Average actions of items: 2.451288460393977
The number of inters: 41189
The sparsity of the dataset: 99.99377640221293%
Tue 02 Apr 2024 16:47:52 INFO 

=================================


Tue 02 Apr 2024 16:47:52 INFO =========1/6: Parameters:['cl_loss', 'cl_loss2', 'seed']=(0.001, 0.001, 999)=======
Tue 02 Apr 2024 16:48:58 INFO SOIL(
  (user_embedding): Embedding(39387, 64)
  (item_id_embedding): Embedding(23033, 64)
  (image_embedding): Embedding(23033, 4096)
  (text_embedding): Embedding(23033, 384)
  (image_trs): Linear(in_features=4096, out_features=64, bias=True)
  (text_trs): Linear(in_features=384, out_features=64, bias=True)
  (softmax): Softmax(dim=-1)
  (query_common): Sequential(
    (0): Linear(in_features=64, out_features=64, bias=True)
    (1): Tanh()
    (2): Linear(in_features=64, out_features=1, bias=False)
  )
  (gate_v): Sequential(
    (0): Linear(in_features=64, out_features=64, bias=True)
    (1): Sigmoid()
  )
  (gate_t): Sequential(
    (0): Linear(in_features=64, out_features=64, bias=True)
    (1): Sigmoid()
  )
)
Trainable parameters: 107482112
Tue 02 Apr 2024 16:49:05 INFO epoch 0 training [time: 6.28s, train loss: 68.3809]
Tue 02 Apr 2024 16:49:19 INFO epoch 0 evaluating [time: 7.07s, valid_score: 0.056400]
Tue 02 Apr 2024 16:49:19 INFO valid result: 
recall@5: 0.0256    recall@10: 0.0385    recall@20: 0.0564    recall@50: 0.0940    ndcg@5: 0.0170    ndcg@10: 0.0211    ndcg@20: 0.0257    ndcg@50: 0.0331    precision@5: 0.0052    precision@10: 0.0039    precision@20: 0.0029    precision@50: 0.0019    map@5: 0.0141    map@10: 0.0158    map@20: 0.0170    map@50: 0.0182    
…
